model.tflite (tflite, 258808 bytes, 5 tensors)

functional_1/dense/BiasAdd/ReadVariableOp/resource f4 [10]
000000 00 00 00 00 00 00 00 00 00 00 00 00 00 00 00 00
       0.0 0.0 0.0 0.0
000010 00 00 00 00 00 00 00 00 00 00 00 00 00 00 00 00
       0.0 0.0 0.0 0.0
000020 00 00 00 00 00 00 00 00
       0.0 0.0

functional_1/dense/MatMul f4 [10, 5408]
000000 98 06 88 bc d9 d9 84 bc 4c 8f c3 3c a0 a3 34 bc
       -0.016604707 -0.01621716 0.02387204 -0.011025339
000010 68 cd de 3c 1e 42 7a bc f8 41 ac 3b 76 e8 74 bc
       0.027197555 -0.015274553 0.0052568875 -0.014948001
000020 4f d3 e5 bc 14 2b 74 bc 10 43 1e bb 4c 1d 9c 3c
       -0.028054861 -0.014902849 -0.002414886 0.019056939
000030 35 90 9c bc 90 7d 73 bc 28 db 29 3c 20 ad c8 bb
       -0.019111732 -0.014861479 0.010367192 -0.0061241537
000040 8c 68 a0 bb 4c de 1c 3c 20 e5 a3 3b d0 b3 b6 bc
       -0.0048952755 0.009574484 0.005001679 -0.022302538
000050 bc 4d 5a bc 73 b9 01 3d d9 d7 fa bc d1 a4 8d bc
       -0.013324197 0.031671 -0.030620502 -0.017290505
000060 0c 0e 27 3c e0 b1 59 3b c0 2d 89 ba 12 81 9a 3c
       0.01019622 0.0033217594 -0.0010465905 0.018860374
000070 78 9f 8e 3c 4c a6 15 3c 60 99 0d 3b c0 9e 66 bc
       0.017410025 0.009133887 0.0021606311 -0.014075935
000080 c0 1b ea 3c f3 79 c5 bc c6 10 8c 3c f2 c5 bf 3c
       0.028577685 -0.024106001 0.017097842 0.023409817
000090 a8 03 21 3c 2b 46 98 bc b0 35 2a 3b 4e 2d f9 3c
       0.009827532 -0.018588146 0.0025971942 0.03041711
0000a0 c8 4c 81 bc f3 4f 00 3d e4 e2 df bb 38 9b cb 3c
       -0.015783682 0.031326246 -0.0068324674 0.024854288
0000b0 c2 6f 44 bc 0c b1 1e 3c b9 14 06 3d 7c 67 fa bc
       -0.011989536 0.009685766 0.032734606 -0.030566923
0000c0 78 66 5b bb 92 d1 04 bd c2 97 7d bc 66 e4 f4 3c
       -0.0033477824 -0.032426424 -0.015478076 0.029894065
0000d0 88 5d 2e 3c bb 58 f8 bc 86 d2 60 bc b0 07 b9 3c
       0.010642417 -0.030315747 -0.013722068 0.022586673
0000e0 c0 dc 54 3b 40 8d 74 bc 9a 91 d2 bc e2 1a f6 3c
       0.003248021 -0.014926255 -0.025704194 0.030042116
0000f0 40 b7 83 bc 42 a4 ea 3c 6c 7b e8 bb 80 00 ea 3b
       -0.016078591 0.028642777 -0.007094791 0.007141173
000100 f0 93 71 bb 74 92 72 3c 0a c7 eb 3c c4 a5 6e 3c
       -0.003686186 0.014805425 0.028781433 0.014565889
000110 48 2c a4 3b 9a a0 5f bc 30 3a 8c bc ae ac 8a 3c
       0.0050101615 -0.01364913 -0.01711759 0.016928043
000120 1c c4 3e bc 80 93 e1 3b 20 bc 83 3c f8 66 56 bc
       -0.011643436 0.0068840384 0.016080916 -0.013086073
000130 c2 36 e6 bc b3 9e 00 3d 20 86 af bc 34 2c ba bc
       -0.028102282 0.031401347 -0.02142626 -0.022726156
000140 05 a5 84 bc e0 d4 3b 3b bc a0 80 3c e0 b5 06 3c
       -0.016191969 0.002866082 0.015701644 0.008222073
000150 70 7a c8 bc 88 53 c6 3b c0 63 2a bb 32 e0 dd 3c
       -0.024472445 0.006052438 -0.0025999397 0.027084444
000160 8c 99 42 3c d8 09 29 3c fe a6 5f bc c0 27 cd ba
       0.011877429 0.010317288 -0.013650654 -0.0015652105
000170 e0 c9 da 3b 38 6a df bb f6 23 fc bc 7a 60 91 bc
       0.0066768974 -0.006818082 -0.030778866 -0.017746199
000180 54 99 7d 3c 1c a0 74 3c 7f 24 81 bc d4 55 6e 3c
       0.015478451 0.014930751 -0.015764473 0.01454683
000190 9e 3e be bc 00 31 1e bc 29 b3 02 3d bb b5 9a bc
       -0.023223218 -0.009655237 0.03190914 -0.018885484
0001a0 c8 aa e9 3b 02 f0 cf bc f8 bd 87 3c d5 06 99 bc
       0.0071309544 -0.025383 0.016570076 -0.018680016
0001b0 d8 3d 9f 3b 71 73 c0 bc a2 67 01 bc a0 0b 53 3b
       0.0048596673 -0.023492547 -0.007898243 0.0032202974
0001c0 60 8a ca 3c 80 e1 45 ba 7c 3c 11 3c 0a 58 1a bc
       0.024724185 -0.0007548556 0.008864518 -0.009420404
0001d0 c6 16 a3 bc 14 10 0f 3c 1c 6d 20 bc a0 90 06 bd
       -0.01990832 0.008731861 -0.009791639 -0.03285277
0001e0 d0 c2 a2 3c e0 d5 cb 3a 30 25 3c 3c 34 eb 99 3c
       0.019868284 0.0015551411 0.011483476 0.018788911
0001f0 06 bd cc 3c e6 bd 4e bc 50 df 19 3b d4 41 bc bc
       0.024992477 -0.0126185175 0.0023479052 -0.022980608
000200 ec 1d 4c 3c f6 47 d7 3c 9f ee d1 bc 11 3f 83 bc
       0.012458306 0.02627943 -0.025626479 -0.016021283
000210 6d c0 05 3d 76 e3 81 3c 10 26 03 3b 7a 67 c5 3c
       0.032654215 0.015855532 0.00200117 0.024097193
000220 9b 12 a4 bc 32 46 74 bc 18 1d 76 bb 8c 99 0e 3c
       -0.020028403 -0.014909314 -0.0037553962 0.008703601
000230 22 44 9a 3c 2c de 0a 3c dc fe ce bc 8e 7f 06 bd
       0.018831316 0.008475821 -0.02526801 -0.03283649
000240 5f f1 e9 bc 48 f6 a5 bc fc 72 de 3c 62 7c cd 3c
       -0.028557478 -0.020259038 0.027154438 0.025083724
000250 90 64 5f 3c 6a 73 2b bc 9e 0c db 3c a0 30 d1 bb
       0.013634816 -0.010464529 0.026739415 -0.0063839704
000260 c6 84 84 3c ac 67 1f 3c 85 19 08 3d dc 5c b6 3c
       0.016176593 0.009729307 0.033227462 0.022261076
000270 6c 8a 98 3c 4e a6 a1 3c a8 ca da bb e8 7e c9 bb
       0.018620692 0.01973262 -0.0066769905 -0.0061491616
000280 e2 85 a2 3c 00 16 06 b9 00 55 d0 39 ca 76 45 bc
       0.01983923 -0.00012787431 0.00039736181 -0.012052247
000290 d2 90 a5 3c 34 b8 ea bc 00 3e 39 bc ea aa a6 bc
       0.020210657 -0.028652288 -0.011306286 -0.02034517
0002a0 b2 04 c8 3c 00 9c 45 3b 7c 7d a3 bc 7c ba 29 3c
       0.024416301 0.0030152798 -0.019957297 0.010359403
0002b0 4a 0d a0 bc 4e c6 7b bc f0 31 3b bb 38 d5 7d 3c
       -0.019537587 -0.015367104 -0.00285637 0.01549273
0002c0 76 39 e2 3c 9c 9d 34 3c 30 48 15 3c d0 29 78 3c
       0.02761529 0.011023905 0.009111449 0.015146688
0002d0 e0 6d 4b 3c ee 7a 51 bc b2 d7 7e bc de 5a d8 bc
       0.012416333 -0.012785656 -0.015554355 -0.026410516
0002e0 6e 5d 9d bc 00 6e a6 3c 6e 3d 87 3c 88 de 43 bc
       -0.01920959 0.020316124 0.016508784 -0.011954911
0002f0 90 61 01 bd c4 43 30 3c 00 7c 4b 39 7a de f4 bc
       -0.031587183 0.010758344 0.00019405782 -0.029891241
000300 2c c7 0b 3c a8 9e 66 bc ca ac 00 bd 7d 6d d1 bc
       0.008531373 -0.014075913 -0.031414784 -0.025564903
000310 f0 a3 48 3c 2c 26 96 3c e0 eb be 3c 00 30 7c b9
       0.012246117 0.018328749 0.023305833 -0.00024050474
000320 9d 60 9b bc 12 25 9a bc 55 da 84 bc 94 35 1c bc
       -0.018966967 -0.018816505 -0.01621739 -0.009534258
000330 0a 82 c6 3c 2c 0b 8f bc 8e a7 a8 3c ae 27 82 bc
       0.02423193 -0.017461382 0.020587709 -0.015888061
000340 1e 0e fa bc 90 d5 01 bb f0 ea a8 3b 74 37 24 3c
       -0.03052431 -0.001981113 0.00515496 0.010022987
000350 48 a9 89 bc 95 08 04 3d 59 a1 e1 bc e6 a8 87 3c
       -0.016804352 0.032234747 -0.027542757 0.01656003
000360 57 dd 00 3d 14 be 9c 3c f0 f3 51 3b 80 dc 66 ba
       0.031461086 0.019133605 0.0032036267 -0.0008806661
000370 de e9 d6 bc ef 70 02 bd b8 07 c2 3c 2f 6b 01 3d
       -0.026234563 -0.031845983 0.023685321 0.03159636
000380 18 c3 10 3c 14 02 3a 3c bc bf 8f bc 23 32 be bc
       0.0088355765 0.0113530345 -0.01754748 -0.023217266
000390 ac 38 a1 bb e0 a2 c0 3b c0 ac 27 3c 0a 56 ef bc
       -0.004920086 0.005878791 0.010234058 -0.029215831
0003a0 0f de d0 bc 58 34 d7 bc d8 9c 0a 3c 45 12 01 3d
       -0.02549651 -0.026270077 0.008460246 0.031511564
0003b0 18 10 8a 3c 80 61 e2 b9 0a 4c 9c bc ea 88 f8 bc
       0.016853377 -0.00043178722 -0.019079227 -0.030338723
0003c0 52 51 70 bc 88 34 8d bb f4 8b 75 bc e6 4b fd 3c
       -0.014667826 -0.0043092407 -0.014986981 0.03091998
0003d0 b3 92 05 bd e4 05 db bb fe e0 fb bc d8 ef a0 3c
       -0.032610606 -0.006684052 -0.030746933 0.019645616
0003e0 b8 07 78 bb 78 5a c5 3c f0 ea 98 3b 2b 52 e2 bc
       -0.0037846398 0.02409099 0.0046666786 -0.027627071
0003f0 37 da 06 3d ce 42 08 bd 4c 6b 6e bc 78 5d cf bc
       0.03292295 -0.033266835 -0.014551949 -0.025313124

functional_1/conv2d/Conv2D f4 [32, 3, 3, 3]
000000 75 d4 8c bd 4a 4a c7 3d 00 46 68 3b 4e 05 04 be
       -0.068764605 0.097309664 0.0035442114 -0.12892649
000010 0f dd 05 3e e0 a8 81 3d 4b 32 05 3e 2d 30 0a 3e
       0.13072608 0.063310385 0.13007466 0.1349494
000020 9a 50 93 3d b6 29 0c be 79 f4 da bd c8 e5 8a 3d
       0.07193108 -0.13687786 -0.10691161 0.067821085
000030 e0 d9 3f 3c a2 86 eb bd 40 7b de 3c 24 df e8 bd
       0.01170966 -0.115002885 0.02715838 -0.11370686
000040 18 1c 71 3d 78 1a fb bd ae 3d 06 bd de d6 0f bd
       0.058864683 -0.12260908 -0.032773666 -0.035117023
000050 36 7c a0 bd 5e ae ea 3d 80 99 7e 3c 78 86 c9 bc
       -0.07836191 0.11459039 0.015539527 -0.024600253
000060 02 ac 91 3d 06 da 93 3d 3c 51 0c be 00 ac b4 3a
       0.07112886 0.07219319 -0.13702863 0.001378417
000070 00 f8 b4 39 05 bb 04 3e 4c 15 29 bd 75 a2 ec bd
       0.0003451705 0.12961967 -0.041280076 -0.11554424
000080 08 67 96 3c d8 71 c3 3d 2a 0d f0 3d 42 a6 e4 bd
       0.018359676 0.09543198 0.11721261 -0.11164524
000090 70 23 9f 3d 60 38 83 bd 90 9b 60 3c 00 3f 70 ba
       0.07770431 -0.06407237 0.013708964 -0.0009164661
0000a0 03 a9 ec bd c0 f9 df 3c 64 79 1d bd c0 42 2e bb
       -0.11555674 0.02734077 -0.038445845 -0.002659008
0000b0 64 dd e0 3d ee a6 a4 bd 2c aa f6 bc 22 48 5f bd
       0.10979727 -0.08039652 -0.030110441 -0.05451215
0000c0 2a 84 b1 bd bf 10 f3 bd bc 6e 36 3d 6c d6 c1 3d
       -0.086677864 -0.118684284 0.0445392 0.09464726
0000d0 38 70 cc 3c c3 b8 08 be 66 42 9a bd 49 2f 05 be
       0.024955854 -0.13351731 -0.07532196 -0.13006319
0000e0 c0 62 03 bc 30 63 e5 3c e6 54 fa 3d c8 1f b5 bc
       -0.008019149 0.028001398 0.12223224 -0.022109881
0000f0 56 cd 5e bd d0 b0 72 bc 5c ad 5a bd 98 d6 fe 3c
       -0.054395042 -0.014812663 -0.053387985 0.031108186
000100 ca 9f a3 3d 1a 62 84 bd b8 50 44 3d 5c 5a 88 3d
       0.07989462 -0.06464024 0.047928542 0.0665786
000110 10 11 65 3c da 47 05 be e7 03 0c be c8 fc 38 3d
       0.013981119 -0.1301569 -0.13673364 0.045162946
000120 e8 3e 8a bc a0 86 73 bd 02 8d f2 3d 00 dd c9 bc
       -0.0168757 -0.05945456 0.11843301 -0.024641514
000130 e0 22 ad bb 6c a9 a9 bc 38 0f 7d bc 5e 54 0a bd
       -0.0052836984 -0.02071067 -0.015445523 -0.033771865
000140 79 1d ef bd 68 92 6f bc d6 08 a4 3d de fa ad 3d
       -0.11675543 -0.014622308 0.08009498 0.08495115
000150 4c e3 3b 3d 4e 43 8b bd d0 93 6f 3d 38 79 d6 bd
       0.045871064 -0.06799947 0.058490574 -0.104723394
000160 24 bd 23 3d ae 11 2c bd 69 5a ca bd 40 57 0b bd
       0.0399753 -0.04200905 -0.098805256 -0.034018755
000170 20 cf 87 3d 02 b4 ea 3d d8 42 c0 3c 9a d7 e2 3d
       0.06631303 0.11460115 0.023469374 0.11076279
000180 8e b8 e9 3d 00 b4 80 3c 14 15 a1 3d 6e 6e ea bd
       0.11412154 0.01571083 0.078653485 -0.11446844
000190 d0 65 69 3d 86 92 91 bd 5e a9 bf bd f6 fc 1e bd
       0.05698186 -0.07108025 -0.09358476 -0.03881546
0001a0 c0 66 d4 bc 04 34 2f 3d da cd e3 3d 14 f4 3a 3d
       -0.025927901 0.042774215 0.111232474 0.045642927
0001b0 50 0b 11 bc f5 49 e6 bd 0c dd c8 bd 4c e5 6e 3d
       -0.008852795 -0.11244575 -0.09807786 0.058324143
0001c0 b1 da f4 bd 00 b2 a1 bc 2a d9 c3 3d 84 e3 11 3d
       -0.119557746 -0.019738197 0.09562905 0.035617366
0001d0 40 49 8c 3d 64 5f 6e 3d a0 ae ac 3c 22 fb 64 bd
       0.06849909 0.05819644 0.021079361 -0.05590356
0001e0 0e a8 2d bd 73 0c 09 be 00 97 d8 ba 6c 60 3d 3d
       -0.042396598 -0.13383655 -0.0016524494 0.046234533
0001f0 24 a2 89 3d 94 29 63 3d bc b3 d2 bc 16 b9 d1 bd
       0.06720379 0.055459574 -0.02572047 -0.102403805
000200 e8 93 36 3d 2e 24 b6 bd 20 73 af bc f8 8e 17 bd
       0.04457465 -0.088936195 -0.0214172 -0.03700158
000210 fc 69 c0 bc cc 97 06 3d 78 85 72 3d 76 e7 ca bd
       -0.023488037 0.03285961 0.059209317 -0.09907429
000220 5a bd fc 3d de 32 8b 3d 96 87 ef bd be 08 94 bd
       0.123408034 0.067968115 -0.11695783 -0.0722823
000230 2a 3b ba 3d f2 c2 a4 bd 5e 3d 9e bd 08 36 ec bc
       0.09093316 -0.08044995 -0.077265486 -0.028834358
000240 82 eb f0 bd 14 70 ed bd f2 d6 ae bd 00 82 bc bb
       -0.117636696 -0.11593643 -0.08537091 -0.005752802
000250 ee ba ba 3d b6 82 94 3d 2b 8f ac bd d0 f1 07 bc
       0.09117685 0.07251494 -0.084257446 -0.008297399
000260 b2 81 ff 3d e0 6b 82 bb 88 1e b4 3c 17 97 c2 bd
       0.12475909 -0.003980145 0.021987215 -0.09501474
000270 70 b1 2a 3d 96 7c a7 bd da dd ab 3d bc 48 18 bd
       0.041673124 -0.0817806 0.08391924 -0.03717874
000280 68 05 fb bd 60 7d 9d bd fc 86 52 bd d8 39 72 3d
       -0.122568905 -0.07689929 -0.051398262 0.059137195
000290 5a 45 bc bd 7c d6 cb 3d 7b c1 92 bd ba 13 bf bd
       -0.09192915 0.09953019 -0.0716581 -0.093299344
0002a0 c4 07 37 3d ac 57 48 bd e4 16 d4 bd 20 85 a0 bb
       0.04468514 -0.048911735 -0.103559285 -0.0048986822
0002b0 b0 be 4f 3c 80 ec f8 3b a8 3b da bd 5c 33 c7 3d
       0.012679741 0.0075965524 -0.1065591 0.09726593
0002c0 dc b1 d6 3d 94 50 cf bd 43 fe 91 bd 7c cd 8f bc
       0.10483143 -0.10122791 -0.07128575 -0.017554037
0002d0 99 b1 ad bd 01 60 08 3e 0e 5b e6 bd b8 03 17 3d
       -0.0848114 0.13317873 -0.11247836 0.03686878
0002e0 1c 39 e3 3d 60 6e db 3c 4a 99 96 bd 94 89 b1 bd
       0.11094877 0.02678603 -0.07353456 -0.08668819
0002f0 80 32 23 bc c0 14 08 bd 7a 3b ea 3d ff ae a6 bd
       -0.009960771 -0.033222914 0.114371255 -0.081388466
000300 a0 be 85 bb 7f 3b 06 3e 5d 57 04 be 18 c2 f9 bc
       -0.004081562 0.13108633 -0.12923951 -0.030488059
000310 ed 24 01 3e 48 38 dc bc 28 a1 fc bc fc ca b7 3d
       0.12611742 -0.026882306 -0.030838564 0.08974263
000320 58 e3 00 bd 82 b1 03 be bb a5 c4 bd c6 79 db bd
       -0.031466812 -0.12860683 -0.09601923 -0.10716586
000330 2c 4b 92 3d 06 c5 04 be b0 ba 9d bd f4 fd 7b bd
       0.07143244 -0.12965783 -0.077016234 -0.061521485
000340 7a 92 ad bd 96 90 c7 3d 60 54 7d bc 70 4c 07 bc
       -0.08475204 0.097443745 -0.015462011 -0.00825797
000350 50 18 0d 3d 18 54 d7 bc dc 6a 0e 3d 88 3e 5e 3d
       0.034447014 -0.026285216 0.034769878 0.054258853
000360 30 d1 1a 3d 80 21 9c bc 3e 0d 32 bd 2e 8c 2d bd
       0.037797153 -0.019058943 -0.04346966 -0.042370014
000370 80 2a a7 3b 78 c2 e8 bd c2 fc ec 3d bc 4e 82 bc
       0.005101502 -0.11365217 0.11571647 -0.015906684
000380 dc d3 b8 3d a9 c5 07 be d8 14 30 3d f0 cb 36 3c
       0.09024784 -0.13258995 0.04298863 0.011157021
000390 06 48 ee 3d 8b aa 06 be 5a 80 f2 3d 70 df 5d 3d
       0.11634831 -0.13150994 0.11840887 0.054168165
0003a0 b8 e9 b2 bd 98 f1 52 3d b2 2c dc 3d ea bd b4 3d
       -0.087359846 0.051499933 0.107507125 0.08825286
0003b0 18 52 b5 3c 2e 27 58 bd 00 ed 7f 3d 98 db b1 bd
       0.022133872 -0.05277174 0.06248188 -0.08684462
0003c0 29 5e f1 bd f0 eb af bd e3 74 ae bd 10 30 45 3c
       -0.11785538 -0.085899234 -0.08518388 0.012035385
0003d0 90 db ce bd 35 f7 02 be 94 0e 77 3d 34 0e a2 3d
       -0.10100472 -0.12789614 0.060316637 0.07912865
0003e0 40 a6 0b 3c d6 5d c0 3d 4c 5e f8 bc b1 35 03 3e
       0.008523524 0.09392898 -0.030318402 0.1281345
0003f0 b4 9c 53 3d 04 c2 d8 3d 3b 7b e5 bd 70 0f e0 3d
       0.051663116 0.105838805 -0.11205145 0.109404445

functional_1/conv2d_1/Conv2D f4 [32, 3, 3, 32]
000000 5c 86 93 3d d8 a5 13 3d 8c 7b 4f 3d a8 30 6e bd
       0.072033614 0.036046833 0.050654933 -0.05815187
000010 e8 a1 49 3c 04 e4 57 3d e0 71 9c 3d c0 ef 04 3d
       0.012306668 0.052707687 0.076389074 0.032455206
000020 00 ca 58 bc 2c ca 30 3d c0 46 57 bc 52 0b ac 3d
       -0.013231754 0.043161556 -0.013139427 0.08400597
000030 00 26 6c 39 fb 15 a9 bd a4 f8 3a bd 98 99 70 bd
       0.0002252087 -0.082561456 -0.04564728 -0.05874023
000040 9c c8 0e 3d 52 9a b1 bd 49 94 bb bd 2c 6d 4a 3d
       0.034859285 -0.086720124 -0.091591425 0.04942052
000050 20 09 50 3c f4 ce 8b 3d 1e 39 a0 bd b6 0b 49 bd
       0.012697488 0.068265826 -0.07823394 -0.049083434
000060 c0 a8 b4 ba c9 e1 c9 bd 98 e1 ca bd 5a 32 ae bd
       -0.0013783202 -0.09857518 -0.0990631 -0.085056975
000070 54 fb 89 3d 8c 17 8b bd fa c8 9f bd b5 2b 6d bd
       0.0673739 -0.067916006 -0.07802005 -0.05790301
000080 d6 18 82 3d f8 c5 23 bc a8 05 94 bc d4 84 0a bd
       0.06352393 -0.00999593 -0.018069103 -0.03381808
000090 70 7d 6c 3d 78 3a f0 3c 6c 0b 83 bd a4 28 ff bc
       0.057736814 0.029324755 -0.06398663 -0.031147309
0000a0 38 71 22 bd 28 78 b7 bc e0 a3 e9 3b 2c 51 5f 3d
       -0.039658755 -0.022396162 0.007130131 0.05452077
0000b0 08 bb a0 3d 2c 73 bc 3d f8 be a1 3d 00 f6 af 3d
       0.078481734 0.09201655 0.078977525 0.08591843
0000c0 c8 ed 2a 3c 40 52 e7 bb 84 64 58 bd 36 c1 ab bd
       0.010432668 -0.0070593655 -0.052830234 -0.083864614
0000d0 70 bf 47 3c 90 35 95 3d 8c 0f e9 bc d6 bd 6d bd
       0.012191638 0.07285607 -0.028449796 -0.05804237
0000e0 68 f2 06 3d 84 fd 84 3c 77 4c 26 bd 08 3e db bc
       0.03294602 0.016234167 -0.040600266 -0.026762977
0000f0 18 30 c9 3c 7b 5c a9 bd 9c 98 88 3c 40 3f b5 3b
       0.024559066 -0.082695924 0.016674332 0.0055312216
000100 a4 2c cd bd 88 76 27 3d e0 b3 8b bc ef 3e a0 bd
       -0.1001828 0.040884525 -0.017053545 -0.07824504
000110 40 5d 26 3b 98 3c dd bc a0 ad b1 3d f0 db 4b 3d
       0.0025385171 -0.027006432 0.086756945 0.049770296
000120 4c 5a f6 bc 5e 57 c4 3d 40 47 be ba 10 36 b9 3c
       -0.030072354 0.095869765 -0.0014517084 0.022608787
000130 05 2a 38 bd 82 d4 c3 3d 4f 00 23 bd 59 d4 62 bd
       -0.044961948 0.09562017 -0.039795216 -0.05537829
000140 fc 70 ab bc 18 37 27 3c 10 51 c9 3b 40 ee c5 bd
       -0.020927899 0.0102060065 0.0061436966 -0.09664583
000150 a6 2e 4f bd 94 d4 9f bc 8e 10 9c 3d 10 78 69 3c
       -0.050581597 -0.019510545 0.07620345 0.014249817
000160 34 1f c1 3d c2 a6 be 3d b0 4c 03 3d ac 7d ab bd
       0.0942978 0.0930915 0.032055557 -0.083735794
000170 1e 20 a7 bd 18 3e 8f 3c a0 ed 64 3d 20 f3 44 bd
       -0.08160423 0.017485663 0.05589068 -0.048083425
000180 ea 19 5e bd 96 ba 99 bd c0 b7 81 ba 4e 84 19 bd
       -0.054223932 -0.075062916 -0.0009896681 -0.03747969
000190 29 82 82 bd 86 2a 9b 3d de 36 8f bd ab b4 99 bd
       -0.06372482 0.0757647 -0.06992887 -0.07505163
0001a0 f8 88 c8 bd b7 1e 26 bd 70 88 d5 bb a8 1a 22 bc
       -0.0979175 -0.040556636 -0.0065165088 -0.009894051
0001b0 00 76 82 39 6d 65 76 bd f8 3e 75 3d 04 82 ac 3d
       0.0002488345 -0.06015532 0.059874505 0.08423236
0001c0 90 91 c8 3b 20 ce cf 3d e3 93 97 bd 72 e5 cf bd
       0.006120868 0.10146737 -0.07401254 -0.10151185
0001d0 10 6f 9d 3b 96 dd 82 bd 34 de a5 3d b0 56 8a 3d
       0.0048044994 -0.063899204 0.080990225 0.067548156
0001e0 21 0d 96 bd 5c 51 30 3d 70 14 92 3d 6c da 97 3d
       -0.07326723 0.04304634 0.071328044 0.074147075
0001f0 88 6c 16 3d c7 0f a6 bd de 0f af 3d d6 6b 86 bd
       0.036724597 -0.08108478 0.08547948 -0.06563537
000200 f8 51 8e 3d 0e cc 59 bd 58 68 e2 bc d0 45 99 3d
       0.06949228 -0.053173117 -0.027637646 0.07484019
000210 34 75 43 3d 4c ae 6b 3d e8 f9 0f bd 9c c6 a1 3d
       0.047719195 0.05753927 -0.03515044 0.0789921
000220 b0 e0 e9 3c b0 6d 09 bd a8 cc 5b bc 28 e4 ec 3c
       0.028549522 -0.03355187 -0.013415493 0.028917387
000230 24 17 5e 3d 80 41 d5 ba a4 f8 a5 bc a2 71 b7 bd
       0.054221287 -0.0016270131 -0.020260163 -0.089572206
000240 a4 69 c8 bc f4 e1 73 3d 72 3c c5 3d 30 de 5d 3d
       -0.024464436 0.059541658 0.0963067 0.054166973
000250 51 69 29 bd 47 be aa bd 70 55 05 bd 27 58 b8 bd
       -0.041360203 -0.08337074 -0.032552183 -0.09001189
000260 f0 f8 04 3d 62 80 88 bd 74 b7 48 3d 58 1e 4c bc
       0.032463968 -0.06665112 0.04900308 -0.012458406
000270 dc fb 31 3d 64 1b aa bc 80 bd 3c 3c f0 d7 3c 3c
       0.043453082 -0.020765014 0.01151979 0.011526093
000280 ba 5b b3 bd 60 08 f6 3b 6c 45 0b bd 71 40 88 bd
       -0.0875773 0.0075083226 -0.034001753 -0.06652916
000290 f8 94 86 bd f0 8f 71 bc 06 8b 0c bd 50 ba af bc
       -0.06571382 -0.01474379 -0.03431227 -0.021451145
0002a0 e0 3e 75 bc 75 f7 46 bd b8 5b 6a 3d 0c ed 24 3d
       -0.014968604 -0.048575837 0.057216376 0.040265128
0002b0 24 ea 6b 3d 10 26 0d 3d ea 2b bf bd f4 a3 c4 3d
       0.05759634 0.034460127 -0.09334548 0.09601584
0002c0 f0 d5 87 bd f8 d7 b6 3c 20 7d 97 3d e8 86 2a 3d
       -0.06632602 0.022319779 0.073969126 0.041632563
0002d0 50 b9 27 bd 10 0e d9 bb 54 07 24 3d 88 b0 e1 bc
       -0.040948212 -0.006623991 0.04004605 -0.027549997
0002e0 d2 68 c3 3d 30 fb 5f 3d e8 db e4 3c 4c eb 4b bd
       0.09541477 0.05468291 0.02793689 -0.049784943
0002f0 30 64 e4 3c ac da 33 3d e4 b2 9c bc 26 31 b9 3d
       0.027879804 0.043909714 -0.01912827 0.090425774
000300 8a a8 81 3d 91 46 27 bd 20 e2 4f 3d f4 16 2f 3d
       0.063309744 -0.04083878 0.05075276 0.0427465
000310 20 ed a8 3b 48 3b e9 3c f1 99 50 bd f4 82 63 3d
       0.0051552206 0.02847065 -0.05092806 0.05554481
000320 78 5d f9 3c 82 71 0d bd 9d cc b5 bd 82 b5 96 3d
       0.030440077 -0.034532078 -0.088769175 0.073588386
000330 38 e7 40 bd b0 06 51 bd 12 a6 b2 3d 78 68 41 3c
       -0.047095507 -0.05103177 0.08723082 0.011804692
000340 f4 47 92 bd ce 95 89 3d 8c 16 91 3d 0f 7b 9c bd
       -0.0714263 0.06718026 0.070843786 -0.07640659
000350 c0 6e 8e bc 30 f0 af bb 68 57 b5 3d a6 60 c6 bd
       -0.017386794 -0.0053692088 0.08854562 -0.09686403
000360 e0 38 30 bc 0c c1 14 bd 10 b7 cd 3c 60 0f c8 bd
       -0.010755748 -0.036316916 0.025111705 -0.097685575
000370 9d 19 65 bd 4c 8e 38 bd 68 0c 2f 3c e0 74 7a 3d
       -0.05593263 -0.04505758 0.01068411 0.061146617
000380 08 87 51 bc a8 a3 cc 3c 0c 8b bf 3d b8 ba 7e 3d
       -0.012788542 0.024980381 0.09352693 0.062189788
000390 3a 86 bf bd 40 13 f2 3b 10 58 8e 3d 80 e6 d0 3b
       -0.093517736 0.0073875487 0.0695039 0.006375134
0003a0 b0 8a 87 3b 40 ab c3 3d ae 2f 9e bd 71 38 5a bd
       0.004136406 0.09554148 -0.07723938 -0.053276483
0003b0 49 07 c8 bd 28 6c 67 3d a4 26 85 3d c0 48 54 bb
       -0.097670145 0.05649963 0.06501511 -0.0032391995
0003c0 0d fa c5 bd e0 98 9c bd da 6c be bd da 4f 95 3d
       -0.09666834 -0.07646346 -0.092981055 0.07290621
0003d0 c4 b5 95 bd 74 13 57 bd 70 85 b8 bc 00 53 c5 ba
       -0.0731006 -0.052508786 -0.022524565 -0.0015054643
0003e0 da 32 a1 3d 13 92 ca bd 42 40 45 bd 0e 4f 9d bd
       0.07871027 -0.09891143 -0.048156984 -0.07681094
0003f0 d2 b8 c5 3d 40 76 28 3d b2 0d ab bd 62 8d ac bd
       0.09654392 0.041128397 -0.083522215 -0.08425404

functional_1/conv2d_1/BiasAdd;functional_1/conv2d_1/Conv2D f4 [32]
000000 00 00 00 00 00 00 00 00 00 00 00 00 00 00 00 00
       0.0 0.0 0.0 0.0
000010 00 00 00 00 00 00 00 00 00 00 00 00 00 00 00 00
       0.0 0.0 0.0 0.0
000020 00 00 00 00 00 00 00 00 00 00 00 00 00 00 00 00
       0.0 0.0 0.0 0.0
000030 00 00 00 00 00 00 00 00 00 00 00 00 00 00 00 00
       0.0 0.0 0.0 0.0
000040 00 00 00 00 00 00 00 00 00 00 00 00 00 00 00 00
       0.0 0.0 0.0 0.0
000050 00 00 00 00 00 00 00 00 00 00 00 00 00 00 00 00
       0.0 0.0 0.0 0.0
000060 00 00 00 00 00 00 00 00 00 00 00 00 00 00 00 00
       0.0 0.0 0.0 0.0
000070 00 00 00 00 00 00 00 00 00 00 00 00 00 00 00 00
       0.0 0.0 0.0 0.0
